…
{"results": {"fid50k_full": 69.76844164817396}, "metric": "fid50k_full", "total_time": 112.69540643692017, "total_time_str": "1m 53s", "num_gpus": 4, "snapshot_pkl": "network-snapshot.pkl", "timestamp": 1741588801.963993}
tick 73    kimg 300.0    time 34m 07s      sec/tick 67.0    sec/kimg 20.53   maintenance 0.0    cpumem 5.68   gpumem 14.84  reserved 15.83
Evaluating metrics...
{"results": {"fid50k_full": 50.22697051560173}, "metric": "fid50k_full", "total_time": 120.01169872283936, "total_time_str": "2m 00s", "num_gpus": 4, "snapshot_pkl": "network-snapshot.pkl", "timestamp": 1741590676.887066}



print(pretrained)


Constructing networks...
Module(
  (layer0): Sequential(
    (0): Conv2dSame(3, 32, kernel_size=(3, 3), stride=(2, 2), bias=False)
    (1): BatchNorm2d(32, eps=0.001, momentum=0.1, affine=True, track_running_stats=True)
    (2): ReLU6(inplace=True)
    (3): Sequential(
      (0): DepthwiseSeparableConv(
        (conv_dw): Conv2d(32, 32, kernel_size=(3, 3), stride=(1, 1), padding=(1, 1), groups=32, bias=False)
        (bn1): BatchNorm2d(32, eps=0.001, momentum=0.1, affine=True, track_running_stats=True)
        (act1): ReLU6(inplace=True)
        (se): Identity()
        (conv_pw): Conv2d(32, 16, kernel_size=(1, 1), stride=(1, 1), bias=False)
        (bn2): BatchNorm2d(16, eps=0.001, momentum=0.1, affine=True, track_running_stats=True)
        (act2): Identity()
      )
    )
    (4): Sequential(
      (0): InvertedResidual(
        (conv_pw): Conv2d(16, 96, kernel_size=(1, 1), stride=(1, 1), bias=False)
        (bn1): BatchNorm2d(96, eps=0.001, momentum=0.1, affine=True, track_running_stats=True)
        (act1): ReLU6(inplace=True)
        (conv_dw): Conv2dSame(96, 96, kernel_size=(3, 3), stride=(2, 2), groups=96, bias=False)
        (bn2): BatchNorm2d(96, eps=0.001, momentum=0.1, affine=True, track_running_stats=True)
        (act2): ReLU6(inplace=True)
        (se): Identity()
        (conv_pwl): Conv2d(96, 24, kernel_size=(1, 1), stride=(1, 1), bias=False)
        (bn3): BatchNorm2d(24, eps=0.001, momentum=0.1, affine=True, track_running_stats=True)
      )
      (1): InvertedResidual(
        (conv_pw): Conv2d(24, 144, kernel_size=(1, 1), stride=(1, 1), bias=False)
        (bn1): BatchNorm2d(144, eps=0.001, momentum=0.1, affine=True, track_running_stats=True)
        (act1): ReLU6(inplace=True)
        (conv_dw): Conv2d(144, 144, kernel_size=(3, 3), stride=(1, 1), padding=(1, 1), groups=144, bias=False)
        (bn2): BatchNorm2d(144, eps=0.001, momentum=0.1, affine=True, track_running_stats=True)
        (act2): ReLU6(inplace=True)
        (se): Identity()
        (conv_pwl): Conv2d(144, 24, kernel_size=(1, 1), stride=(1, 1), bias=False)
        (bn3): BatchNorm2d(24, eps=0.001, momentum=0.1, affine=True, track_running_stats=True)
      )
    )
  )
  (layer1): Sequential(
    (0): Sequential(
      (0): InvertedResidual(
        (conv_pw): Conv2d(24, 144, kernel_size=(1, 1), stride=(1, 1), bias=False)
        (bn1): BatchNorm2d(144, eps=0.001, momentum=0.1, affine=True, track_running_stats=True)
        (act1): ReLU6(inplace=True)
        (conv_dw): Conv2dSame(144, 144, kernel_size=(5, 5), stride=(2, 2), groups=144, bias=False)
        (bn2): BatchNorm2d(144, eps=0.001, momentum=0.1, affine=True, track_running_stats=True)
        (act2): ReLU6(inplace=True)
        (se): Identity()
        (conv_pwl): Conv2d(144, 40, kernel_size=(1, 1), stride=(1, 1), bias=False)
        (bn3): BatchNorm2d(40, eps=0.001, momentum=0.1, affine=True, track_running_stats=True)
      )
      (1): InvertedResidual(
        (conv_pw): Conv2d(40, 240, kernel_size=(1, 1), stride=(1, 1), bias=False)
        (bn1): BatchNorm2d(240, eps=0.001, momentum=0.1, affine=True, track_running_stats=True)
        (act1): ReLU6(inplace=True)
        (conv_dw): Conv2d(240, 240, kernel_size=(5, 5), stride=(1, 1), padding=(2, 2), groups=240, bias=False)
        (bn2): BatchNorm2d(240, eps=0.001, momentum=0.1, affine=True, track_running_stats=True)
        (act2): ReLU6(inplace=True)
        (se): Identity()
        (conv_pwl): Conv2d(240, 40, kernel_size=(1, 1), stride=(1, 1), bias=False)
        (bn3): BatchNorm2d(40, eps=0.001, momentum=0.1, affine=True, track_running_stats=True)
      )
    )
  )
  (layer2): Sequential(
    (0): Sequential(
      (0): InvertedResidual(
        (conv_pw): Conv2d(40, 240, kernel_size=(1, 1), stride=(1, 1), bias=False)
        (bn1): BatchNorm2d(240, eps=0.001, momentum=0.1, affine=True, track_running_stats=True)
        (act1): ReLU6(inplace=True)
        (conv_dw): Conv2dSame(240, 240, kernel_size=(3, 3), stride=(2, 2), groups=240, bias=False)
        (bn2): BatchNorm2d(240, eps=0.001, momentum=0.1, affine=True, track_running_stats=True)
        (act2): ReLU6(inplace=True)
        (se): Identity()
        (conv_pwl): Conv2d(240, 80, kernel_size=(1, 1), stride=(1, 1), bias=False)
        (bn3): BatchNorm2d(80, eps=0.001, momentum=0.1, affine=True, track_running_stats=True)
      )
      (1): InvertedResidual(
        (conv_pw): Conv2d(80, 480, kernel_size=(1, 1), stride=(1, 1), bias=False)
        (bn1): BatchNorm2d(480, eps=0.001, momentum=0.1, affine=True, track_running_stats=True)
        (act1): ReLU6(inplace=True)
        (conv_dw): Conv2d(480, 480, kernel_size=(3, 3), stride=(1, 1), padding=(1, 1), groups=480, bias=False)
        (bn2): BatchNorm2d(480, eps=0.001, momentum=0.1, affine=True, track_running_stats=True)
        (act2): ReLU6(inplace=True)
        (se): Identity()
        (conv_pwl): Conv2d(480, 80, kernel_size=(1, 1), stride=(1, 1), bias=False)
        (bn3): BatchNorm2d(80, eps=0.001, momentum=0.1, affine=True, track_running_stats=True)
      )
      (2): InvertedResidual(
        (conv_pw): Conv2d(80, 480, kernel_size=(1, 1), stride=(1, 1), bias=False)
        (bn1): BatchNorm2d(480, eps=0.001, momentum=0.1, affine=True, track_running_stats=True)
        (act1): ReLU6(inplace=True)
        (conv_dw): Conv2d(480, 480, kernel_size=(3, 3), stride=(1, 1), padding=(1, 1), groups=480, bias=False)
        (bn2): BatchNorm2d(480, eps=0.001, momentum=0.1, affine=True, track_running_stats=True)
        (act2): ReLU6(inplace=True)
        (se): Identity()
        (conv_pwl): Conv2d(480, 80, kernel_size=(1, 1), stride=(1, 1), bias=False)
        (bn3): BatchNorm2d(80, eps=0.001, momentum=0.1, affine=True, track_running_stats=True)
      )
    )
    (1): Sequential(
      (0): InvertedResidual(
        (conv_pw): Conv2d(80, 480, kernel_size=(1, 1), stride=(1, 1), bias=False)
        (bn1): BatchNorm2d(480, eps=0.001, momentum=0.1, affine=True, track_running_stats=True)
        (act1): ReLU6(inplace=True)
        (conv_dw): Conv2d(480, 480, kernel_size=(5, 5), stride=(1, 1), padding=(2, 2), groups=480, bias=False)
        (bn2): BatchNorm2d(480, eps=0.001, momentum=0.1, affine=True, track_running_stats=True)
        (act2): ReLU6(inplace=True)
        (se): Identity()
        (conv_pwl): Conv2d(480, 112, kernel_size=(1, 1), stride=(1, 1), bias=False)
        (bn3): BatchNorm2d(112, eps=0.001, momentum=0.1, affine=True, track_running_stats=True)
      )
      (1): InvertedResidual(
        (conv_pw): Conv2d(112, 672, kernel_size=(1, 1), stride=(1, 1), bias=False)
        (bn1): BatchNorm2d(672, eps=0.001, momentum=0.1, affine=True, track_running_stats=True)
        (act1): ReLU6(inplace=True)
        (conv_dw): Conv2d(672, 672, kernel_size=(5, 5), stride=(1, 1), padding=(2, 2), groups=672, bias=False)
        (bn2): BatchNorm2d(672, eps=0.001, momentum=0.1, affine=True, track_running_stats=True)
        (act2): ReLU6(inplace=True)
        (se): Identity()
        (conv_pwl): Conv2d(672, 112, kernel_size=(1, 1), stride=(1, 1), bias=False)
        (bn3): BatchNorm2d(112, eps=0.001, momentum=0.1, affine=True, track_running_stats=True)
      )
      (2): InvertedResidual(
        (conv_pw): Conv2d(112, 672, kernel_size=(1, 1), stride=(1, 1), bias=False)
        (bn1): BatchNorm2d(672, eps=0.001, momentum=0.1, affine=True, track_running_stats=True)
        (act1): ReLU6(inplace=True)
        (conv_dw): Conv2d(672, 672, kernel_size=(5, 5), stride=(1, 1), padding=(2, 2), groups=672, bias=False)
        (bn2): BatchNorm2d(672, eps=0.001, momentum=0.1, affine=True, track_running_stats=True)
        (act2): ReLU6(inplace=True)
        (se): Identity()
        (conv_pwl): Conv2d(672, 112, kernel_size=(1, 1), stride=(1, 1), bias=False)
        (bn3): BatchNorm2d(112, eps=0.001, momentum=0.1, affine=True, track_running_stats=True)
      )
    )
  )
  (layer3): Sequential(
    (0): Sequential(
      (0): InvertedResidual(
        (conv_pw): Conv2d(112, 672, kernel_size=(1, 1), stride=(1, 1), bias=False)
        (bn1): BatchNorm2d(672, eps=0.001, momentum=0.1, affine=True, track_running_stats=True)
        (act1): ReLU6(inplace=True)
        (conv_dw): Conv2dSame(672, 672, kernel_size=(5, 5), stride=(2, 2), groups=672, bias=False)
        (bn2): BatchNorm2d(672, eps=0.001, momentum=0.1, affine=True, track_running_stats=True)
        (act2): ReLU6(inplace=True)
        (se): Identity()
        (conv_pwl): Conv2d(672, 192, kernel_size=(1, 1), stride=(1, 1), bias=False)
        (bn3): BatchNorm2d(192, eps=0.001, momentum=0.1, affine=True, track_running_stats=True)
      )
      (1): InvertedResidual(
        (conv_pw): Conv2d(192, 1152, kernel_size=(1, 1), stride=(1, 1), bias=False)
        (bn1): BatchNorm2d(1152, eps=0.001, momentum=0.1, affine=True, track_running_stats=True)
        (act1): ReLU6(inplace=True)
        (conv_dw): Conv2d(1152, 1152, kernel_size=(5, 5), stride=(1, 1), padding=(2, 2), groups=1152, bias=False)
        (bn2): BatchNorm2d(1152, eps=0.001, momentum=0.1, affine=True, track_running_stats=True)
        (act2): ReLU6(inplace=True)
        (se): Identity()
        (conv_pwl): Conv2d(1152, 192, kernel_size=(1, 1), stride=(1, 1), bias=False)
        (bn3): BatchNorm2d(192, eps=0.001, momentum=0.1, affine=True, track_running_stats=True)
      )
      (2): InvertedResidual(
        (conv_pw): Conv2d(192, 1152, kernel_size=(1, 1), stride=(1, 1), bias=False)
        (bn1): BatchNorm2d(1152, eps=0.001, momentum=0.1, affine=True, track_running_stats=True)
        (act1): ReLU6(inplace=True)
        (conv_dw): Conv2d(1152, 1152, kernel_size=(5, 5), stride=(1, 1), padding=(2, 2), groups=1152, bias=False)
        (bn2): BatchNorm2d(1152, eps=0.001, momentum=0.1, affine=True, track_running_stats=True)
        (act2): ReLU6(inplace=True)
        (se): Identity()
        (conv_pwl): Conv2d(1152, 192, kernel_size=(1, 1), stride=(1, 1), bias=False)
        (bn3): BatchNorm2d(192, eps=0.001, momentum=0.1, affine=True, track_running_stats=True)
      )
      (3): InvertedResidual(
        (conv_pw): Conv2d(192, 1152, kernel_size=(1, 1), stride=(1, 1), bias=False)
        (bn1): BatchNorm2d(1152, eps=0.001, momentum=0.1, affine=True, track_running_stats=True)
        (act1): ReLU6(inplace=True)
        (conv_dw): Conv2d(1152, 1152, kernel_size=(5, 5), stride=(1, 1), padding=(2, 2), groups=1152, bias=False)
        (bn2): BatchNorm2d(1152, eps=0.001, momentum=0.1, affine=True, track_running_stats=True)
        (act2): ReLU6(inplace=True)
        (se): Identity()
        (conv_pwl): Conv2d(1152, 192, kernel_size=(1, 1), stride=(1, 1), bias=False)
        (bn3): BatchNorm2d(192, eps=0.001, momentum=0.1, affine=True, track_running_stats=True)
      )
    )
    (1): Sequential(
      (0): InvertedResidual(
        (conv_pw): Conv2d(192, 1152, kernel_size=(1, 1), stride=(1, 1), bias=False)
        (bn1): BatchNorm2d(1152, eps=0.001, momentum=0.1, affine=True, track_running_stats=True)
        (act1): ReLU6(inplace=True)
        (conv_dw): Conv2d(1152, 1152, kernel_size=(3, 3), stride=(1, 1), padding=(1, 1), groups=1152, bias=False)
        (bn2): BatchNorm2d(1152, eps=0.001, momentum=0.1, affine=True, track_running_stats=True)
        (act2): ReLU6(inplace=True)
        (se): Identity()
        (conv_pwl): Conv2d(1152, 320, kernel_size=(1, 1), stride=(1, 1), bias=False)
        (bn3): BatchNorm2d(320, eps=0.001, momentum=0.1, affine=True, track_running_stats=True)
      )
    )
  )
)



Layer 0 features shape: torch.Size([3, 24, 64, 64])
Layer 1 features shape: torch.Size([3, 40, 32, 32])
Layer 2 features shape: torch.Size([3, 112, 16, 16])
Layer 3 features shape: torch.Size([3, 320, 8, 8])

feature map：
Channel Mixed Layer 1 features shape: torch.Size([3, 64, 64, 64])
Channel Mixed Layer 2 features shape: torch.Size([3, 128, 32, 32])
…
